…
2023-09-10 01:38:00.181496: TRAINING KEYS:
 odict_keys(['train_0001', 'train_0002', 'train_0003', 'train_0004']) 
2023-09-10 01:38:00.182920: VALIDATION KEYS:
 odict_keys(['train_0006']) 
2023-09-10 01:38:05.551402: lr: 0.0005 
2023-09-10 01:38:50.760451: Unable to plot network architecture: 
2023-09-10 01:38:50.765080: No module named 'hiddenlayer' 
2023-09-10 01:38:50.767617: 
printing the network instead:
 
2023-09-10 01:38:50.858441: Generic_UNet(
  (conv_blocks_localization): ModuleList(
    (0): Sequential(
      (0): StackedConvLayers(
        (blocks): Sequential(
          (0): ConvDropoutNormNonlin(
            (conv): Conv2d(960, 480, kernel_size=[3, 3], stride=(1, 1), padding=[1, 1])
            (instnorm): InstanceNorm2d(480, eps=1e-05, momentum=0.1, affine=True, track_running_stats=False)
            (lrelu): LeakyReLU(negative_slope=0.01, inplace=True)
          )
        )
      )
      (1): StackedConvLayers(
        (blocks): Sequential(
          (0): ConvDropoutNormNonlin(
            (conv): Conv2d(480, 480, kernel_size=[3, 3], stride=(1, 1), padding=[1, 1])
            (instnorm): InstanceNorm2d(480, eps=1e-05, momentum=0.1, affine=True, track_running_stats=False)
            (lrelu): LeakyReLU(negative_slope=0.01, inplace=True)
          )
        )
      )
    )
    (1): Sequential(
      (0): StackedConvLayers(
        (blocks): Sequential(
          (0): ConvDropoutNormNonlin(
            (conv): Conv2d(960, 480, kernel_size=[3, 3], stride=(1, 1), padding=[1, 1])
            (instnorm): InstanceNorm2d(480, eps=1e-05, momentum=0.1, affine=True, track_running_stats=False)
            (lrelu): LeakyReLU(negative_slope=0.01, inplace=True)
          )
        )
      )
      (1): StackedConvLayers(
        (blocks): Sequential(
          (0): ConvDropoutNormNonlin(
            (conv): Conv2d(480, 480, kernel_size=[3, 3], stride=(1, 1), padding=[1, 1])
            (instnorm): InstanceNorm2d(480, eps=1e-05, momentum=0.1, affine=True, track_running_stats=False)
            (lrelu): LeakyReLU(negative_slope=0.01, inplace=True)
          )
        )
      )
    )
    (2): Sequential(
      (0): StackedConvLayers(
        (blocks): Sequential(
          (0): ConvDropoutNormNonlin(
            (conv): Conv2d(960, 480, kernel_size=[3, 3], stride=(1, 1), padding=[1, 1])
            (instnorm): InstanceNorm2d(480, eps=1e-05, momentum=0.1, affine=True, track_running_stats=False)
            (lrelu): LeakyReLU(negative_slope=0.01, inplace=True)
          )
        )
      )
      (1): StackedConvLayers(
        (blocks): Sequential(
          (0): ConvDropoutNormNonlin(
            (conv): Conv2d(480, 480, kernel_size=[3, 3], stride=(1, 1), padding=[1, 1])
            (instnorm): InstanceNorm2d(480, eps=1e-05, momentum=0.1, affine=True, track_running_stats=False)
            (lrelu): LeakyReLU(negative_slope=0.01, inplace=True)
          )
        )
      )
    )
    (3): Sequential(
      (0): StackedConvLayers(
        (blocks): Sequential(
          (0): ConvDropoutNormNonlin(
            (conv): Conv2d(512, 256, kernel_size=[3, 3], stride=(1, 1), padding=[1, 1])
            (instnorm): InstanceNorm2d(256, eps=1e-05, momentum=0.1, affine=True, track_running_stats=False)
            (lrelu): LeakyReLU(negative_slope=0.01, inplace=True)
          )
        )
      )
      (1): StackedConvLayers(
        (blocks): Sequential(
          (0): ConvDropoutNormNonlin(
            (conv): Conv2d(256, 256, kernel_size=[3, 3], stride=(1, 1), padding=[1, 1])
            (instnorm): InstanceNorm2d(256, eps=1e-05, momentum=0.1, affine=True, track_running_stats=False)
            (lrelu): LeakyReLU(negative_slope=0.01, inplace=True)
          )
        )
      )
    )
    (4): Sequential(
      (0): StackedConvLayers(
        (blocks): Sequential(
          (0): ConvDropoutNormNonlin(
            (conv): Conv2d(256, 128, kernel_size=[3, 3], stride=(1, 1), padding=[1, 1])
            (instnorm): InstanceNorm2d(128, eps=1e-05, momentum=0.1, affine=True, track_running_stats=False)
            (lrelu): LeakyReLU(negative_slope=0.01, inplace=True)
          )
        )
      )
      (1): StackedConvLayers(
        (blocks): Sequential(
          (0): ConvDropoutNormNonlin(
            (conv): Conv2d(128, 128, kernel_size=[3, 3], stride=(1, 1), padding=[1, 1])
            (instnorm): InstanceNorm2d(128, eps=1e-05, momentum=0.1, affine=True, track_running_stats=False)
            (lrelu): LeakyReLU(negative_slope=0.01, inplace=True)
          )
        )
      )
    )
    (5): Sequential(
      (0): StackedConvLayers(
        (blocks): Sequential(
          (0): ConvDropoutNormNonlin(
            (conv): Conv2d(128, 64, kernel_size=[3, 3], stride=(1, 1), padding=[1, 1])
            (instnorm): InstanceNorm2d(64, eps=1e-05, momentum=0.1, affine=True, track_running_stats=False)
            (lrelu): LeakyReLU(negative_slope=0.01, inplace=True)
          )
        )
      )
      (1): StackedConvLayers(
        (blocks): Sequential(
          (0): ConvDropoutNormNonlin(
            (conv): Conv2d(64, 64, kernel_size=[3, 3], stride=(1, 1), padding=[1, 1])
            (instnorm): InstanceNorm2d(64, eps=1e-05, momentum=0.1, affine=True, track_running_stats=False)
            (lrelu): LeakyReLU(negative_slope=0.01, inplace=True)
          )
        )
      )
    )
    (6): Sequential(
      (0): StackedConvLayers(
        (blocks): Sequential(
          (0): ConvDropoutNormNonlin(
            (conv): Conv2d(64, 32, kernel_size=[3, 3], stride=(1, 1), padding=[1, 1])
            (instnorm): InstanceNorm2d(32, eps=1e-05, momentum=0.1, affine=True, track_running_stats=False)
            (lrelu): LeakyReLU(negative_slope=0.01, inplace=True)
          )
        )
      )
      (1): StackedConvLayers(
        (blocks): Sequential(
          (0): ConvDropoutNormNonlin(
            (conv): Conv2d(32, 32, kernel_size=[3, 3], stride=(1, 1), padding=[1, 1])
            (instnorm): InstanceNorm2d(32, eps=1e-05, momentum=0.1, affine=True, track_running_stats=False)
            (lrelu): LeakyReLU(negative_slope=0.01, inplace=True)
          )
        )
      )
    )
  )
  (conv_blocks_context): ModuleList(
    (0): StackedConvLayers(
      (blocks): Sequential(
        (0): ConvDropoutNormNonlin(
          (conv): Conv2d(1, 32, kernel_size=[3, 3], stride=(1, 1), padding=[1, 1])
          (instnorm): InstanceNorm2d(32, eps=1e-05, momentum=0.1, affine=True, track_running_stats=False)
          (lrelu): LeakyReLU(negative_slope=0.01, inplace=True)
        )
        (1): ConvDropoutNormNonlin(
          (conv): Conv2d(32, 32, kernel_size=[3, 3], stride=(1, 1), padding=[1, 1])
          (instnorm): InstanceNorm2d(32, eps=1e-05, momentum=0.1, affine=True, track_running_stats=False)
          (lrelu): LeakyReLU(negative_slope=0.01, inplace=True)
        )
      )
    )
    (1): StackedConvLayers(
      (blocks): Sequential(
        (0): ConvDropoutNormNonlin(
          (conv): Conv2d(32, 64, kernel_size=[3, 3], stride=[2, 2], padding=[1, 1])
          (instnorm): InstanceNorm2d(64, eps=1e-05, momentum=0.1, affine=True, track_running_stats=False)
          (lrelu): LeakyReLU(negative_slope=0.01, inplace=True)
        )
        (1): ConvDropoutNormNonlin(
          (conv): Conv2d(64, 64, kernel_size=[3, 3], stride=(1, 1), padding=[1, 1])
          (instnorm): InstanceNorm2d(64, eps=1e-05, momentum=0.1, affine=True, track_running_stats=False)
          (lrelu): LeakyReLU(negative_slope=0.01, inplace=True)
        )
      )
    )
    (2): StackedConvLayers(
      (blocks): Sequential(
        (0): ConvDropoutNormNonlin(
          (conv): Conv2d(64, 128, kernel_size=[3, 3], stride=[2, 2], padding=[1, 1])
          (instnorm): InstanceNorm2d(128, eps=1e-05, momentum=0.1, affine=True, track_running_stats=False)
          (lrelu): LeakyReLU(negative_slope=0.01, inplace=True)
        )
        (1): ConvDropoutNormNonlin(
          (conv): Conv2d(128, 128, kernel_size=[3, 3], stride=(1, 1), padding=[1, 1])
          (instnorm): InstanceNorm2d(128, eps=1e-05, momentum=0.1, affine=True, track_running_stats=False)
          (lrelu): LeakyReLU(negative_slope=0.01, inplace=True)
        )
      )
    )
    (3): StackedConvLayers(
      (blocks): Sequential(
        (0): ConvDropoutNormNonlin(
          (conv): Conv2d(128, 256, kernel_size=[3, 3], stride=[2, 2], padding=[1, 1])
          (instnorm): InstanceNorm2d(256, eps=1e-05, momentum=0.1, affine=True, track_running_stats=False)
          (lrelu): LeakyReLU(negative_slope=0.01, inplace=True)
        )
        (1): ConvDropoutNormNonlin(
          (conv): Conv2d(256, 256, kernel_size=[3, 3], stride=(1, 1), padding=[1, 1])
          (instnorm): InstanceNorm2d(256, eps=1e-05, momentum=0.1, affine=True, track_running_stats=False)
          (lrelu): LeakyReLU(negative_slope=0.01, inplace=True)
        )
      )
    )
    (4): StackedConvLayers(
      (blocks): Sequential(
        (0): ConvDropoutNormNonlin(
          (conv): Conv2d(256, 480, kernel_size=[3, 3], stride=[2, 2], padding=[1, 1])
          (instnorm): InstanceNorm2d(480, eps=1e-05, momentum=0.1, affine=True, track_running_stats=False)
          (lrelu): LeakyReLU(negative_slope=0.01, inplace=True)
        )
        (1): ConvDropoutNormNonlin(
          (conv): Conv2d(480, 480, kernel_size=[3, 3], stride=(1, 1), padding=[1, 1])
          (instnorm): InstanceNorm2d(480, eps=1e-05, momentum=0.1, affine=True, track_running_stats=False)
          (lrelu): LeakyReLU(negative_slope=0.01, inplace=True)
        )
      )
    )
    (5): StackedConvLayers(
      (blocks): Sequential(
        (0): ConvDropoutNormNonlin(
          (conv): Conv2d(480, 480, kernel_size=[3, 3], stride=[2, 2], padding=[1, 1])
          (instnorm): InstanceNorm2d(480, eps=1e-05, momentum=0.1, affine=True, track_running_stats=False)
          (lrelu): LeakyReLU(negative_slope=0.01, inplace=True)
        )
        (1): ConvDropoutNormNonlin(
          (conv): Conv2d(480, 480, kernel_size=[3, 3], stride=(1, 1), padding=[1, 1])
          (instnorm): InstanceNorm2d(480, eps=1e-05, momentum=0.1, affine=True, track_running_stats=False)
          (lrelu): LeakyReLU(negative_slope=0.01, inplace=True)
        )
      )
    )
    (6): StackedConvLayers(
      (blocks): Sequential(
        (0): ConvDropoutNormNonlin(
          (conv): Conv2d(480, 480, kernel_size=[3, 3], stride=[2, 2], padding=[1, 1])
          (instnorm): InstanceNorm2d(480, eps=1e-05, momentum=0.1, affine=True, track_running_stats=False)
          (lrelu): LeakyReLU(negative_slope=0.01, inplace=True)
        )
        (1): ConvDropoutNormNonlin(
          (conv): Conv2d(480, 480, kernel_size=[3, 3], stride=(1, 1), padding=[1, 1])
          (instnorm): InstanceNorm2d(480, eps=1e-05, momentum=0.1, affine=True, track_running_stats=False)
          (lrelu): LeakyReLU(negative_slope=0.01, inplace=True)
        )
      )
    )
    (7): Sequential(
      (0): StackedConvLayers(
        (blocks): Sequential(
          (0): ConvDropoutNormNonlin(
            (conv): Conv2d(480, 480, kernel_size=[3, 3], stride=[2, 2], padding=[1, 1])
            (instnorm): InstanceNorm2d(480, eps=1e-05, momentum=0.1, affine=True, track_running_stats=False)
            (lrelu): LeakyReLU(negative_slope=0.01, inplace=True)
          )
        )
      )
      (1): StackedConvLayers(
        (blocks): Sequential(
          (0): ConvDropoutNormNonlin(
            (conv): Conv2d(480, 480, kernel_size=[3, 3], stride=(1, 1), padding=[1, 1])
            (instnorm): InstanceNorm2d(480, eps=1e-05, momentum=0.1, affine=True, track_running_stats=False)
            (lrelu): LeakyReLU(negative_slope=0.01, inplace=True)
          )
        )
      )
    )
  )
  (td): ModuleList()
  (tu): ModuleList(
    (0): ConvTranspose2d(480, 480, kernel_size=[2, 2], stride=[2, 2], bias=False)
    (1): ConvTranspose2d(480, 480, kernel_size=[2, 2], stride=[2, 2], bias=False)
    (2): ConvTranspose2d(480, 480, kernel_size=[2, 2], stride=[2, 2], bias=False)
    (3): ConvTranspose2d(480, 256, kernel_size=[2, 2], stride=[2, 2], bias=False)
    (4): ConvTranspose2d(256, 128, kernel_size=[2, 2], stride=[2, 2], bias=False)
    (5): ConvTranspose2d(128, 64, kernel_size=[2, 2], stride=[2, 2], bias=False)
    (6): ConvTranspose2d(64, 32, kernel_size=[2, 2], stride=[2, 2], bias=False)
  )
  (seg_outputs): ModuleList(
    (0): Conv2d(480, 5, kernel_size=(1, 1), stride=(1, 1), bias=False)
    (1): Conv2d(480, 5, kernel_size=(1, 1), stride=(1, 1), bias=False)
    (2): Conv2d(480, 5, kernel_size=(1, 1), stride=(1, 1), bias=False)
    (3): Conv2d(256, 5, kernel_size=(1, 1), stride=(1, 1), bias=False)
    (4): Conv2d(128, 5, kernel_size=(1, 1), stride=(1, 1), bias=False)
    (5): Conv2d(64, 5, kernel_size=(1, 1), stride=(1, 1), bias=False)
    (6): Conv2d(32, 5, kernel_size=(1, 1), stride=(1, 1), bias=False)
  )
  (nonlocal4_2): NONLocalBlock2D(
    (g): Sequential(
      (0): Conv2d(960, 240, kernel_size=(1, 1), stride=(1, 1))
      (1): MaxPool2d(kernel_size=2, stride=2, padding=0, dilation=1, ceil_mode=False)
    )
    (W): Sequential(
      (0): Conv2d(240, 960, kernel_size=(1, 1), stride=(1, 1))
      (1): BatchNorm2d(960, eps=1e-05, momentum=0.1, affine=True, track_running_stats=True)
    )
    (theta): Conv2d(960, 240, kernel_size=(1, 1), stride=(1, 1))
    (phi): Sequential(
      (0): Conv2d(960, 240, kernel_size=(1, 1), stride=(1, 1))
      (1): MaxPool2d(kernel_size=2, stride=2, padding=0, dilation=1, ceil_mode=False)
    )
  )
  (attentionblock3): MultiAttentionBlock(
    (gate_block_1): GridAttentionBlock2D(
      (W): Sequential(
        (0): Conv2d(480, 480, kernel_size=(1, 1), stride=(1, 1))
        (1): BatchNorm2d(480, eps=1e-05, momentum=0.1, affine=True, track_running_stats=True)
      )
      (theta): Conv2d(480, 480, kernel_size=(1, 1), stride=(1, 1))
      (phi): Conv2d(480, 480, kernel_size=(1, 1), stride=(1, 1))
      (psi): Conv2d(480, 1, kernel_size=(1, 1), stride=(1, 1))
    )
    (gate_block_2): GridAttentionBlock2D(
      (W): Sequential(
        (0): Conv2d(480, 480, kernel_size=(1, 1), stride=(1, 1))
        (1): BatchNorm2d(480, eps=1e-05, momentum=0.1, affine=True, track_running_stats=True)
      )
      (theta): Conv2d(480, 480, kernel_size=(1, 1), stride=(1, 1))
      (phi): Conv2d(480, 480, kernel_size=(1, 1), stride=(1, 1))
      (psi): Conv2d(480, 1, kernel_size=(1, 1), stride=(1, 1))
    )
    (combine_gates): Sequential(
      (0): Conv2d(960, 480, kernel_size=(1, 1), stride=(1, 1))
      (1): BatchNorm2d(480, eps=1e-05, momentum=0.1, affine=True, track_running_stats=True)
      (2): ReLU(inplace=True)
    )
  )
  (attentionblock2): MultiAttentionBlock(
    (gate_block_1): GridAttentionBlock2D(
      (W): Sequential(
        (0): Conv2d(256, 256, kernel_size=(1, 1), stride=(1, 1))
        (1): BatchNorm2d(256, eps=1e-05, momentum=0.1, affine=True, track_running_stats=True)
      )
      (theta): Conv2d(256, 256, kernel_size=(1, 1), stride=(1, 1))
      (phi): Conv2d(480, 256, kernel_size=(1, 1), stride=(1, 1))
      (psi): Conv2d(256, 1, kernel_size=(1, 1), stride=(1, 1))
    )
    (gate_block_2): GridAttentionBlock2D(
      (W): Sequential(
        (0): Conv2d(256, 256, kernel_size=(1, 1), stride=(1, 1))
        (1): BatchNorm2d(256, eps=1e-05, momentum=0.1, affine=True, track_running_stats=True)
      )
      (theta): Conv2d(256, 256, kernel_size=(1, 1), stride=(1, 1))
      (phi): Conv2d(480, 256, kernel_size=(1, 1), stride=(1, 1))
      (psi): Conv2d(256, 1, kernel_size=(1, 1), stride=(1, 1))
    )
    (combine_gates): Sequential(
      (0): Conv2d(512, 256, kernel_size=(1, 1), stride=(1, 1))
      (1): BatchNorm2d(256, eps=1e-05, momentum=0.1, affine=True, track_running_stats=True)
      (2): ReLU(inplace=True)
    )
  )
  (attentionblock1): MultiAttentionBlock(
    (gate_block_1): GridAttentionBlock2D(
      (W): Sequential(
        (0): Conv2d(128, 128, kernel_size=(1, 1), stride=(1, 1))
        (1): BatchNorm2d(128, eps=1e-05, momentum=0.1, affine=True, track_running_stats=True)
      )
      (theta): Conv2d(128, 128, kernel_size=(1, 1), stride=(1, 1))
      (phi): Conv2d(256, 128, kernel_size=(1, 1), stride=(1, 1))
      (psi): Conv2d(128, 1, kernel_size=(1, 1), stride=(1, 1))
    )
    (gate_block_2): GridAttentionBlock2D(
      (W): Sequential(
        (0): Conv2d(128, 128, kernel_size=(1, 1), stride=(1, 1))
        (1): BatchNorm2d(128, eps=1e-05, momentum=0.1, affine=True, track_running_stats=True)
      )
      (theta): Conv2d(128, 128, kernel_size=(1, 1), stride=(1, 1))
      (phi): Conv2d(256, 128, kernel_size=(1, 1), stride=(1, 1))
      (psi): Conv2d(128, 1, kernel_size=(1, 1), stride=(1, 1))
    )
    (combine_gates): Sequential(
      (0): Conv2d(256, 128, kernel_size=(1, 1), stride=(1, 1))
      (1): BatchNorm2d(128, eps=1e-05, momentum=0.1, affine=True, track_running_stats=True)
      (2): ReLU(inplace=True)
    )
  )
  (up4): SE_Conv_Block(
    (conv1): Conv2d(960, 480, kernel_size=(3, 3), stride=(1, 1), padding=(1, 1), bias=False)
    (bn1): BatchNorm2d(480, eps=1e-05, momentum=0.1, affine=True, track_running_stats=True)
    (relu): ReLU(inplace=True)
    (conv2): Conv2d(480, 960, kernel_size=(3, 3), stride=(1, 1), padding=(1, 1), bias=False)
    (bn2): BatchNorm2d(960, eps=1e-05, momentum=0.1, affine=True, track_running_stats=True)
    (conv3): Conv2d(960, 480, kernel_size=(3, 3), stride=(1, 1), padding=(1, 1), bias=False)
    (bn3): BatchNorm2d(480, eps=1e-05, momentum=0.1, affine=True, track_running_stats=True)
    (globalAvgPool): AvgPool2d(kernel_size=(16, 16), stride=1, padding=0)
    (globalMaxPool): MaxPool2d(kernel_size=(16, 16), stride=1, padding=0, dilation=1, ceil_mode=False)
    (fc1): Linear(in_features=960, out_features=240, bias=True)
    (fc2): Linear(in_features=240, out_features=960, bias=True)
    (sigmoid): Sigmoid()
    (downchannel): Sequential(
      (0): Conv2d(960, 960, kernel_size=(1, 1), stride=(1, 1), bias=False)
      (1): BatchNorm2d(960, eps=1e-05, momentum=0.1, affine=True, track_running_stats=True)
    )
  )
  (up3): SE_Conv_Block(
    (conv1): Conv2d(960, 480, kernel_size=(3, 3), stride=(1, 1), padding=(1, 1), bias=False)
    (bn1): BatchNorm2d(480, eps=1e-05, momentum=0.1, affine=True, track_running_stats=True)
    (relu): ReLU(inplace=True)
    (conv2): Conv2d(480, 960, kernel_size=(3, 3), stride=(1, 1), padding=(1, 1), bias=False)
    (bn2): BatchNorm2d(960, eps=1e-05, momentum=0.1, affine=True, track_running_stats=True)
    (conv3): Conv2d(960, 480, kernel_size=(3, 3), stride=(1, 1), padding=(1, 1), bias=False)
    (bn3): BatchNorm2d(480, eps=1e-05, momentum=0.1, affine=True, track_running_stats=True)
    (globalAvgPool): AvgPool2d(kernel_size=(32, 32), stride=1, padding=0)
    (globalMaxPool): MaxPool2d(kernel_size=(32, 32), stride=1, padding=0, dilation=1, ceil_mode=False)
    (fc1): Linear(in_features=960, out_features=240, bias=True)
    (fc2): Linear(in_features=240, out_features=960, bias=True)
    (sigmoid): Sigmoid()
    (downchannel): Sequential(
      (0): Conv2d(960, 960, kernel_size=(1, 1), stride=(1, 1), bias=False)
      (1): BatchNorm2d(960, eps=1e-05, momentum=0.1, affine=True, track_running_stats=True)
    )
  )
  (up2): SE_Conv_Block(
    (conv1): Conv2d(512, 256, kernel_size=(3, 3), stride=(1, 1), padding=(1, 1), bias=False)
    (bn1): BatchNorm2d(256, eps=1e-05, momentum=0.1, affine=True, track_running_stats=True)
    (relu): ReLU(inplace=True)
    (conv2): Conv2d(256, 512, kernel_size=(3, 3), stride=(1, 1), padding=(1, 1), bias=False)
    (bn2): BatchNorm2d(512, eps=1e-05, momentum=0.1, affine=True, track_running_stats=True)
    (conv3): Conv2d(512, 256, kernel_size=(3, 3), stride=(1, 1), padding=(1, 1), bias=False)
    (bn3): BatchNorm2d(256, eps=1e-05, momentum=0.1, affine=True, track_running_stats=True)
    (globalAvgPool): AvgPool2d(kernel_size=(64, 64), stride=1, padding=0)
    (globalMaxPool): MaxPool2d(kernel_size=(64, 64), stride=1, padding=0, dilation=1, ceil_mode=False)
    (fc1): Linear(in_features=512, out_features=128, bias=True)
    (fc2): Linear(in_features=128, out_features=512, bias=True)
    (sigmoid): Sigmoid()
    (downchannel): Sequential(
      (0): Conv2d(512, 512, kernel_size=(1, 1), stride=(1, 1), bias=False)
      (1): BatchNorm2d(512, eps=1e-05, momentum=0.1, affine=True, track_running_stats=True)
    )
  )
  (up1): SE_Conv_Block(
    (conv1): Conv2d(256, 128, kernel_size=(3, 3), stride=(1, 1), padding=(1, 1), bias=False)
    (bn1): BatchNorm2d(128, eps=1e-05, momentum=0.1, affine=True, track_running_stats=True)
    (relu): ReLU(inplace=True)
    (conv2): Conv2d(128, 256, kernel_size=(3, 3), stride=(1, 1), padding=(1, 1), bias=False)
    (bn2): BatchNorm2d(256, eps=1e-05, momentum=0.1, affine=True, track_running_stats=True)
    (conv3): Conv2d(256, 128, kernel_size=(3, 3), stride=(1, 1), padding=(1, 1), bias=False)
    (bn3): BatchNorm2d(128, eps=1e-05, momentum=0.1, affine=True, track_running_stats=True)
    (globalAvgPool): AvgPool2d(kernel_size=(128, 128), stride=1, padding=0)
    (globalMaxPool): MaxPool2d(kernel_size=(128, 128), stride=1, padding=0, dilation=1, ceil_mode=False)
    (fc1): Linear(in_features=256, out_features=64, bias=True)
    (fc2): Linear(in_features=64, out_features=256, bias=True)
    (sigmoid): Sigmoid()
    (downchannel): Sequential(
      (0): Conv2d(256, 256, kernel_size=(1, 1), stride=(1, 1), bias=False)
      (1): BatchNorm2d(256, eps=1e-05, momentum=0.1, affine=True, track_running_stats=True)
    )
  )
  (up0): SE_Conv_Block(
    (conv1): Conv2d(128, 64, kernel_size=(3, 3), stride=(1, 1), padding=(1, 1), bias=False)
    (bn1): BatchNorm2d(64, eps=1e-05, momentum=0.1, affine=True, track_running_stats=True)
    (relu): ReLU(inplace=True)
    (conv2): Conv2d(64, 128, kernel_size=(3, 3), stride=(1, 1), padding=(1, 1), bias=False)
    (bn2): BatchNorm2d(128, eps=1e-05, momentum=0.1, affine=True, track_running_stats=True)
    (conv3): Conv2d(128, 64, kernel_size=(3, 3), stride=(1, 1), padding=(1, 1), bias=False)
    (bn3): BatchNorm2d(64, eps=1e-05, momentum=0.1, affine=True, track_running_stats=True)
    (globalAvgPool): AvgPool2d(kernel_size=(256, 256), stride=1, padding=0)
    (globalMaxPool): MaxPool2d(kernel_size=(256, 256), stride=1, padding=0, dilation=1, ceil_mode=False)
    (fc1): Linear(in_features=128, out_features=32, bias=True)
    (fc2): Linear(in_features=32, out_features=128, bias=True)
    (sigmoid): Sigmoid()
    (downchannel): Sequential(
      (0): Conv2d(128, 128, kernel_size=(1, 1), stride=(1, 1), bias=False)
      (1): BatchNorm2d(128, eps=1e-05, momentum=0.1, affine=True, track_running_stats=True)
    )
  )
  (up01): SE_Conv_Block(
    (conv1): Conv2d(64, 32, kernel_size=(3, 3), stride=(1, 1), padding=(1, 1), bias=False)
    (bn1): BatchNorm2d(32, eps=1e-05, momentum=0.1, affine=True, track_running_stats=True)
    (relu): ReLU(inplace=True)
    (conv2): Conv2d(32, 64, kernel_size=(3, 3), stride=(1, 1), padding=(1, 1), bias=False)
    (bn2): BatchNorm2d(64, eps=1e-05, momentum=0.1, affine=True, track_running_stats=True)
    (conv3): Conv2d(64, 32, kernel_size=(3, 3), stride=(1, 1), padding=(1, 1), bias=False)
    (bn3): BatchNorm2d(32, eps=1e-05, momentum=0.1, affine=True, track_running_stats=True)
    (globalAvgPool): AvgPool2d(kernel_size=(512, 512), stride=1, padding=0)
    (globalMaxPool): MaxPool2d(kernel_size=(512, 512), stride=1, padding=0, dilation=1, ceil_mode=False)
    (fc1): Linear(in_features=64, out_features=16, bias=True)
    (fc2): Linear(in_features=16, out_features=64, bias=True)
    (sigmoid): Sigmoid()
    (downchannel): Sequential(
      (0): Conv2d(64, 64, kernel_size=(1, 1), stride=(1, 1), bias=False)
      (1): BatchNorm2d(64, eps=1e-05, momentum=0.1, affine=True, track_running_stats=True)
    )
  )
  (up_concat4): UpCat(
    (up): ConvTranspose2d(480, 480, kernel_size=(2, 2), stride=(2, 2))
  )
  (up_concat3): UpCat(
    (up): ConvTranspose2d(480, 480, kernel_size=(2, 2), stride=(2, 2))
  )
  (up_concat2): UpCat(
    (up): ConvTranspose2d(480, 256, kernel_size=(2, 2), stride=(2, 2))
  )
  (up_concat1): UpCat(
    (up): ConvTranspose2d(256, 128, kernel_size=(2, 2), stride=(2, 2))
  )
  (up_concat0): UpCat(
    (up): ConvTranspose2d(128, 64, kernel_size=(2, 2), stride=(2, 2))
  )
  (up_concat01): UpCat(
    (up): ConvTranspose2d(64, 32, kernel_size=(2, 2), stride=(2, 2))
  )
) 
2023-09-10 01:38:51.169535: 
 
2023-09-10 01:38:51.259517: 
epoch:  0 
